…
': 0, 'lr': [0.25]}, 'scoring': {'_name': 'bleu', 'pad': 1, 'eos': 2, 'unk': 3}, 'bpe': None, 'tokenizer': None, 'ema': {'_name': None, 'store_ema': False, 'ema_decay': 0.9999, 'ema_start_update': 0, 'ema_seed_model': None, 'ema_update_freq': 1, 'ema_fp32': False}, 'simul_type': None}
2022-05-24 11:01:01 | INFO | fairseq.tasks.translation | [de] dictionary: 8848 types
2022-05-24 11:01:01 | INFO | fairseq.tasks.translation | [en] dictionary: 6632 types
2022-05-24 11:01:01 | INFO | fairseq_cli.train | FConvModel(
  (encoder): FConvEncoder(
    (dropout_module): FairseqDropout()
    (embed_tokens): Embedding(8848, 256, padding_idx=1)
    (embed_positions): LearnedPositionalEmbedding(1024, 256, padding_idx=1)
    (fc1): Linear(in_features=256, out_features=256, bias=True)
    (projections): ModuleList(
      (0): None
      (1): None
      (2): None
      (3): None
    )
    (convolutions): ModuleList(
      (0): ConvTBC(256, 512, kernel_size=(3,), padding=(1,))
      (1): ConvTBC(256, 512, kernel_size=(3,), padding=(1,))
      (2): ConvTBC(256, 512, kernel_size=(3,), padding=(1,))
      (3): ConvTBC(256, 512, kernel_size=(3,), padding=(1,))
    )
    (fc2): Linear(in_features=256, out_features=256, bias=True)
  )
  (decoder): FConvDecoder(
    (dropout_module): FairseqDropout()
    (embed_tokens): Embedding(6632, 256, padding_idx=1)
    (embed_positions): LearnedPositionalEmbedding(1024, 256, padding_idx=1)
    (fc1): Linear(in_features=256, out_features=256, bias=True)
    (projections): ModuleList(
      (0): None
      (1): None
      (2): None
    )
    (convolutions): ModuleList(
      (0): LinearizedConvolution(256, 512, kernel_size=(3,), padding=(2,))
      (1): LinearizedConvolution(256, 512, kernel_size=(3,), padding=(2,))
      (2): LinearizedConvolution(256, 512, kernel_size=(3,), padding=(2,))
    )
    (attention): ModuleList(
      (0): AttentionLayer(
        (in_projection): Linear(in_features=256, out_features=256, bias=True)
        (out_projection): Linear(in_features=256, out_features=256, bias=True)
      )
      (1): AttentionLayer(
        (in_projection): Linear(in_features=256, out_features=256, bias=True)
        (out_projection): Linear(in_features=256, out_features=256, bias=True)
      )
      (2): AttentionLayer(
        (in_projection): Linear(in_features=256, out_features=256, bias=True)
        (out_projection): Linear(in_features=256, out_features=256, bias=True)
      )
    )
    (fc2): Linear(in_features=256, out_features=256, bias=True)
    (fc3): Linear(in_features=256, out_features=6632, bias=True)
  )
)
2022-05-24 11:01:01 | INFO | fairseq_cli.train | task: TranslationTask
2022-05-24 11:01:01 | INFO | fairseq_cli.train | model: FConvModel
2022-05-24 11:01:01 | INFO | fairseq_cli.train | criterion: CrossEntropyCriterion
2022-05-24 11:01:01 | INFO | fairseq_cli.train | num. shared model params: 9,618,384 (num. trained: 9,618,384)
2022-05-24 11:01:01 | INFO | fairseq_cli.train | num. expert model params: 0 (num. trained: 0)
…
